outputs/models/neural_network_model.pth (torch, 19395 bytes, 7 tensors)

fc1.weight f4 [64, 19]
00000000: c4ed 3a3e 755a 373e 42ae 20be ae6f 473d
00000010: 82cc afbd bdb3 acbe 16db 00be b4db 453a
00000020: 2116 843d a86d 5b3e d874 df3d 32c2 46bd
00000030: c57c 0ebd fe12 913e 8e4d a1bd 94db 613e
00000040: 0dec 49be 781d 383e 63da 18be b9f8 7dbc
00000050: 6d75 60be 693c 2a3e a73f 2a3e 3647 433d
00000060: f71a 26be ec85 abbc bc72 64be fc10 733d
00000070: 355b 5fbe d79f 5abe abda eb3d 3f6b e3bd
00000080: e99e 90bd 71c6 51be c53b e1bd 64c7 763e
00000090: c8df 66bb 8377 c4be 0534 afbd 974d b6be
000000a0: 7054 18be 4bff 95be 287a 3abd 140f a9be
000000b0: 8d5a 063c d228 f23d 312d 3b3d ceb5 2e3d
000000c0: 4ace 673d 8849 863e 5cac f93e a266 ca3d
000000d0: 7240 c6be a9b1 453e 0a16 ea3d 46cc 023e
000000e0: a601 ac3d 0434 02be fab2 16be f59e 9cbd
000000f0: 0e3d 153d 6a72 c03c dc19 013e feef a6bd
00000100: 1914 04be f6bc bdbd 3c42 16bc 13fc b63d
00000110: 901f 32bd 19b2 893c d385 6a3e ae9a 07be
00000120: e364 533d 7d95 5abd 8d41 3d3e a89d 07be
00000130: 5a42 08bc 80c3 14be 43fd 9c3c b2a1 5ebe
00000140: 5df6 d23e ed06 833d cbee 44be a6d5 2dbe
00000150: 4b87 97be fbec b2bc f6ed 52be 51c7 49be
00000160: f402 9bbd b1de 7fbe 8487 a43d 4d43 40bb
00000170: 5116 4abe c02f d0bd 6bd3 e5bd 46a6 883c
00000180: 2f1b 88be 4ef3 4fbe 152a b9be db73 143d
00000190: 2f70 133e 4d7e 003e 6643 7a3d 534e a9be
000001a0: dd41 9dbe 9933 18be ee0b 083d d143 25bd
000001b0: 67a4 55bc fa0a a0be 90ea 753d 8974 013e
000001c0: ed92 623e 376e 1cbe 118c 48bd 6517 99bd
000001d0: 752a 5bbc cb39 cfba 2497 cd3c e2ed d23d
000001e0: 89c5 5fbb 74a3 0a3e 878c b23d 8ad3 a2bc
000001f0: 94a8 903d 2cec 66be f810 ba3c 0463 693e
00000200: cdcb 153d 0c45 223e 7e28 223e 6051 57be
00000210: c993 923d b7b6 8abd c32b a4bd 672c 79be
00000220: baef b5be 6c9e 16bd cc7a 9abc 1b02 c23e
00000230: b1e3 8f3d 3252 b93d 43a7 53bd f425 843e
00000240: fc45 143e 7cbf bf3d 8707 233e bcf2 b4bc
00000250: 04d6 5e3e 0c21 29be 6ce9 123e 484a 7e3d
00000260: 0748 983d 3a81 65be bed6 78be 8d76 db3d
00000270: bf78 1ebd 4746 5e3e 6be3 0bbe 90d4 56be
00000280: e1af a5bd 3f9d e23c 5e1d d73d 65ea f6bd
00000290: 3a2d 4ebe 7be8 90bd d1ed 64be d525 ddba
000002a0: be01 603d 606e 973e 5128 a9be 5846 c3bd
000002b0: 5038 b7be 146a 823e 74f8 22be d748 20bd
000002c0: dfa6 91be 5a0f 413e 47c6 6c3e a767 83bd
000002d0: c30b 53bd 993b d33d 4ff3 383d 22ad 7a3e
000002e0: ef0e 1dbe fb9c 88be e914 03be 427d 763e
000002f0: 0c6f 773d 97e8 5abd 600c 4dbe bf4c f33e
00000300: 5f5b 783e a5a9 3bbe fa54 f3bd 386c 23be
00000310: 860e c03e 5c18 4c3e 2475 a83c 5d3a c43d
00000320: 6719 c13d 777a 0fbe 558b 5a3d a90b 583e
00000330: 3046 11be 176a b3bd 6ad7 8d3d 92d8 d33d
00000340: 34f4 ee3c 4cf3 6bbd 9196 b3be 1bff c2bd
00000350: d8e7 17bc 67cc e4bd 41cc a13e 7b71 dc3c
00000360: 6713 2a3d a18b 0bbe 9e14 41be 2303 e23d
00000370: 62cb 1c3d 77a9 073e 0543 14bd 6af0 4ebc
00000380: c02c d0bc 6e2d 2dbe 949b 803e 168c 71be
00000390: 8193 b43c 9aee 573e e12a 07be 19ea dabe
000003a0: 9965 71bb 7d49 3f3e fd5e 5f3e a894 d2bd
000003b0: bfc2 2bbe 5356 6ebe 1027 27be 48f6 8c3d
000003c0: 1ee6 13bd 0efb d33d dad7 49be f89d c739
000003d0: 11f2 0a3e 2d81 01bd 351b 53be 0b25 7cbd
000003e0: 86bf 363e 6594 1b3e c9cb 67be 6a70 89be
000003f0: a3c5 9abd b0bb 003e 6aac 6d3e bdf2 053d
0.18254763 0.179056 -0.15691474 0.04869049 -0.08583929 -0.3373088 -0.12583575 0.0007547692
0.06449533 0.2142855 0.10910958 -0.048525043 -0.03478696 0.28334802 -0.078761205 0.22056419
-0.19718952 0.17979991 -0.14927058 -0.015501195 -0.21919794 0.16624607 0.16625844 0.047675334
-0.16221224 -0.020937882 -0.22309393 0.05934237 -0.21812136 -0.21350037 0.11516317 -0.1110444
-0.0706156 -0.20485856 -0.10997728 0.24099499 -0.00352286 -0.3837243 -0.08554844 -0.3560607
-0.1487596 -0.29296336 -0.045526654 -0.33019316 0.0082003 0.11824192 0.045697395 0.04265385
0.056593217 0.26227975 0.48764312 0.09882857 -0.38721043 0.19306053 0.11429985 0.12773237
0.08398752 -0.12715155 -0.14716712 -0.07647506 0.03643518 0.023492057 0.12607521 -0.081512436
-0.12898292 -0.09264557 -0.009171065 0.08934798 -0.04348713 0.016808556 0.22902612 -0.132426
0.051609885 -0.05336522 0.18482037 -0.13243735 -0.008316601 -0.14527702 0.019163733 -0.2174137
0.41203585 0.06397805 -0.19231717 -0.16976032 -0.29595408 -0.021841517 -0.20598587 -0.1970494
-0.07568923 -0.24987294 0.0803366 -0.002933699 -0.19735076 -0.101653576 -0.112219654 0.016680848
-0.2658324 -0.20307657 -0.3616492 0.0362433 0.14398263 0.1254818 0.061099432 -0.3306757
-0.30714312 -0.14863433 0.033214502 -0.040347878 -0.013039685 -0.31258374 0.06003815 0.12642111
0.2212636 -0.15276419 -0.048961703 -0.07475165 -0.013376822 -0.001581007 0.025096484 0.10299279
-0.003414484 0.13538915 0.0871821 -0.01987626 0.07063404 -0.2255103 0.02271317 0.22791678
0.036571313 0.15846652 0.15835759 -0.21027136 0.07157094 -0.06773131 -0.080161594 -0.24333344
-0.3553446 -0.036772177 -0.018857382 0.3789223 0.070258506 0.09048881 -0.051673185 0.25810206
0.14479822 0.093626946 0.1592084 -0.022088401 0.21761328 -0.16516513 0.14346856 0.06208256
0.07435613 -0.22412577 -0.24300668 0.10715971 -0.03868937 0.21706496 -0.13660972 -0.20979524
-0.08090187 0.027662871 0.10503648 -0.12056426 -0.2013444 -0.07075592 -0.22356345 -0.0016872237
0.05468916 0.29576397 -0.3303857 -0.095349014 -0.3578515 0.25471556 -0.1591509 -0.039131965
-0.28447625 0.18853512 0.23122512 -0.064162545 -0.05152489 0.10314102 0.045153912 0.24480107
-0.15337728 -0.26682267 -0.12800945 0.2407122 0.060408637 -0.05344447 -0.20024252 0.4751949
0.24253605 -0.18326433 -0.11881442 -0.15959251 0.3751108 0.19931167 0.02056367 0.095814444
0.09428673 -0.1401156 0.053355534 0.21098198 -0.1418693 -0.087604694 0.069258526 0.10344042
0.02916918 -0.057605073 -0.3507581 -0.09521314 -0.009271584 -0.11171799 0.31601146 0.02690958
0.04152241 -0.13627483 -0.18855521 0.110357545 0.0382799 0.1324824 -0.036196727 -0.012630561
-0.025411963 -0.16911861 0.25118697 -0.23588595 0.022042992 0.21087113 -0.13199951 -0.42756727
-0.0036834239 0.18680377 0.21813579 -0.1028226 -0.16773508 -0.23275118 -0.16323495 0.06882912
-0.03610813 0.10350619 -0.19711247 0.00038073934 0.13568904 -0.031617332 -0.20615847 -0.061558764
0.17846498 0.15193327 -0.22636332 -0.26843578 -0.075572275 0.12571597 0.23210302 0.032702196

fc1.bias f4 [64]
00000000: 77be 0fbe 6ed1 af3d 766e 66be 81ed 6fbb
00000010: e024 7ebe 7e4a 7e3e 6ffe 60be f49c bbbe
00000020: c64f 4a3d 3069 0fbe cff5 70be f41d c53d
00000030: edf4 b138 217e 22be d1b5 3e3e 7c9e 07bd
00000040: c866 0dbd 7d43 26bd 0e3d 70be 8236 abbe
00000050: ddcb e1bd 3be4 2abe b5e6 2bbd 81a5 afbd
00000060: dbad 2f3e fad5 b4bd b09e 87be c514 b23d
00000070: d7b7 f53d 08b2 39be c8ae 98be 222d 3bbd
00000080: 1577 97be 42f0 4fbd fa89 b7bb a079 173e
00000090: 4d65 80be d79f 36be 2a77 70be 3de5 c9be
000000a0: ed1a 36be 857b 973c c3a9 80be 0897 373d
000000b0: 37f3 833c a1e9 913c bb8b a63e 4001 073d
000000c0: 498c 96be 39f0 8bbd 12c9 8b3e 3622 b2bd
000000d0: 8883 4dbe 046f 3bbd b2fa 98bc 4bed 2abd
000000e0: ebf7 02be 5dc4 22be 5f37 43be ced8 67be
000000f0: 53bd 4c3e 4dc3 823d d4ee ddbd 45ed fd3d
-0.140375 0.085848674 -0.22503075 -0.003661007 -0.24818754 0.24833104 -0.21972059 -0.36643183
0.049392484 -0.1400497 -0.23531269 0.09624854 8.485639e-05 -0.15868427 0.18624045 -0.033110127
-0.034521848 -0.040591706 -0.2346079 -0.33440024 -0.11025212 -0.16688626 -0.041968066 -0.08576489
0.17156164 -0.08829875 -0.26488256 0.08695368 0.11997955 -0.1813432 -0.29820848 -0.04569734
-0.2958304 -0.050766237 -0.005601165 0.1479249 -0.25077286 -0.17834412 -0.23482957 -0.39432707
-0.17783709 0.018491516 -0.25129518 0.04482177 0.016107185 0.017811598 0.3252848 0.032960176
-0.29403904 -0.06832928 0.27301842 -0.086979315 -0.20069706 -0.04576017 -0.018674228 -0.041730206
-0.12789886 -0.15895219 -0.19064091 -0.22641298 0.19994096 0.06384907 -0.108365685 0.12398771

fc2.weight f4 [32, 64]
00000000: c311 fb3e fe1d 233b 27f2 a23e f238 913d
00000010: 9cb7 f23d 1f6f 943d 04cc b73c 01c9 b73e
00000020: 1f64 0d3e 1142 983d 0eb2 c23b 27e6 e73d
00000030: 92d6 0f3c b020 713e 3507 ab3b dbb8 143d
00000040: 5a97 1c3e b9f1 333d f8be 043e 20f9 253d
00000050: 40b7 1e3e b33d 44bd 8caa 27be 170b 98bd
00000060: 7b32 08bd 5747 863e 88ef 7f3e 55e7 9dbb
00000070: 6acf 30be 5293 853e 04d2 38bd a5f0 4c3d
00000080: c37d 563d 5895 ab3d ebce 4c3e 279f 983d
00000090: 141a 92be 56f6 cb3d 8e81 633e 0aac 8abd
000000a0: 46e1 273e 2510 b63e 1a7d 5e3e fb63 5b3e
000000b0: 9ed7 883d a390 0e3e cb06 01be 4cdf ca3d
000000c0: 1b2f 143f e984 8b3e 182f 0cbd 8b4f 04be
000000d0: a06b 93bd af2b 53be cc1d 1f3e 719f 313e
000000e0: 30dd 9fbc 05f8 d53d 6708 023e 6b30 4a3e
000000f0: b8b2 16bc eb97 82bd 0808 54bd 6b36 a83c
00000100: 5d90 c13e 0d69 cfbd e0f6 d63e b4c9 9f3d
00000110: d929 e43d 91fe 83bd 5aeb 99bc d79f a83e
00000120: 67c0 da3d 4bb5 533e 160c 203e ecf2 243d
00000130: a3fb b43d c048 903e c060 943d 696b cd3d
00000140: 547b 4e3e 6301 de3d c887 c03d ce7f 6e3c
00000150: c5c2 583e a1eb eebd 4d19 663c 4c1a 8a3d
00000160: be47 fa3d babf 7d3e 59db 773e caff 1cbe
00000170: 1d5c c3bd bc1f 693e e36c bdbd a945 903e
00000180: 5fcc 363d 8950 043d 994c 533e 7550 863c
00000190: 63c0 dfbd 1aa5 183e fe17 fc3d 0097 913d
000001a0: f5cc a23d d226 f73e 77a9 253c cdf8 1d3e
000001b0: fa32 d93d 731d d13e 43cf 42bd 061a 423e
000001c0: 7845 ce3e 495d c93d 6a60 c13c 41b0 8abd
000001d0: a07b 81bd 7274 1fbe a2d6 223d 24d4 b1bd
000001e0: 09c5 283d a3ae bc3c 3a5b fe3d b863 253e
000001f0: 34a9 53bc 072c e5ba c499 96bd edee b93d
00000200: 1593 42be de2b 49be 8aa7 93bd 9c6b ee3d
00000210: 9005 603c 74bf d9be 9fb0 2c3e c0fe 89be
00000220: 015b 5fbe c2ad 8bbe 038d 1bbe badb e0bd
00000230: 1fd8 41be a784 81bd 0c7e 78be 7938 c83d
00000240: fab8 96bd be3b 74be 702c 11be cb0d c03d
00000250: 0b49 22bd f69b 1abe e8f4 993c 0cbb 053d
00000260: 5356 4cbe 975b dfbd 373e cdbb b97a 06bf
00000270: f7e5 123e 7dca 0dbe dfa8 913e 67f9 61be
00000280: b9ec 1cbe f45d a7bd 36b7 40be c9f2 b1be
00000290: e401 243e 7b1c 0a3d c48e e1bd e5bb 353e
000002a0: 461c bc3d 8d41 59be 1e15 3bbe daf0 833e
000002b0: 5b91 a5be 67b2 e4be 1754 57be 86cd b0be
000002c0: 7b5a 6dbe f546 363e 273b 30be 39fe 7e3d
000002d0: 0346 0c3e d6f1 be3c e73a 76be 68a4 f8bc
000002e0: bba4 a7be 592d 94bd 36db f1bd 8e4b 55be
000002f0: cea0 94be 0835 67be 48f0 1b3e 365b 00bf
00000300: 39a7 873e e160 07bd e996 b63e 67ef 1abc
00000310: a968 4f3e cb9b 843d e82c 30bd ca2f 7e3e
00000320: 7d8d 0d3e 1e4a 773e 9f65 da3d 044a 41bb
00000330: e0a5 f3ba d9ab d63d 2c8f 36bc f7bc 403d
00000340: 8543 b13d 5195 373c 4a9d d93d af8f 123d
00000350: ce3d 903e 8f45 46be 51d7 43be 39be 803d
00000360: 78c9 d23d 5b4e 7e3e 62c7 453e be18 8d3d
00000370: 169e 0cbe a453 c33e fe0c e2bc 3556 403e
00000380: 5495 2a3e 306a cf3d ca80 de3c 585a 55ba
00000390: db73 95be 3206 a63c facf dc3d 629b 69bc
000003a0: ef42 023e ac53 f13e 5678 db3c dd6e 4f3e
000003b0: e9d4 213e 2d81 df3d bddf 2bbe b910 9f3d
000003c0: 99a1 c23e baa4 323e 2449 b33c 04ef 0ebd
000003d0: a131 3fbd 4e44 70be f480 5c3e d07f 823c
000003e0: a91c 2a3e 35ba 573e 0608 793e 7fc3 1f3e
000003f0: 8afd 22bd 12bc e03c 3b7e 88bb 10bc bd3b
0.4903699 0.0024889703 0.31825373 0.070909396 0.11851427 0.07247757 0.02243615 0.3589554
0.13807724 0.07434476 0.005941636 0.11323195 0.008779185 0.23547626 0.005219365 0.036309104
0.15292111 0.043931697 0.12963474 0.040520787 0.15499592 -0.047910403 -0.16373652 -0.0742399
-0.033251267 0.26226303 0.24993718 -0.0048188367 -0.17266622 0.2608896 -0.04512216 0.050034184
0.05236603 0.083780944 0.20000808 0.07452231 -0.2853552 0.09959094 0.2221739 -0.06771095
0.16394529 0.35559192 0.2172741 0.21424858 0.06681751 0.13922362 -0.12600248 0.09905872
0.5788438 0.2724984 -0.0342246 -0.12920968 -0.07198262 -0.20622133 0.1553871 0.17345978
-0.01951465 0.104476966 0.12698518 0.19745032 -0.009197883 -0.06376632 -0.05176547 0.020533761
0.37805453 -0.10127459 0.41985226 0.07802144 0.11140794 -0.06445039 -0.018788982 0.32934448
0.10681229 0.20674627 0.1562961 0.04027073 0.088370584 0.28180504 0.07245016 0.100302525
0.20164233 0.10840108 0.09400898 0.014556838 0.21168049 -0.116660364 0.014044118 0.06743297
0.12220715 0.24780169 0.24204768 -0.15331951 -0.095390536 0.22766012 -0.09249284 0.28178146
0.044628497 0.032303367 0.20634688 0.016395787 -0.10925367 0.14906731 0.12309264 0.07108879
0.07949249 0.48271805 0.010111204 0.15426941 0.10605426 0.4084278 -0.04756094 0.1895524
0.40287375 0.09832246 0.023605544 -0.06771899 -0.06322408 -0.15571764 0.03975547 -0.08683041
0.041203532 0.023032492 0.12419744 0.16151321 -0.012918759 -0.0017484435 -0.07353547 0.090787746
-0.1900142 -0.1964564 -0.0720969 0.116416186 0.013673201 -0.4252888 0.1686425 -0.2695217
-0.21812059 -0.27281004 -0.1519051 -0.109794095 -0.189301 -0.063241296 -0.24266833 0.09776396
-0.073595 -0.23850915 -0.14177108 0.09377631 -0.03962044 -0.15098557 0.018793538 0.032649085
-0.19954805 -0.10906141 -0.00626352 -0.5253101 0.14345537 -0.13846774 0.2844915 -0.22067796
-0.15324678 -0.08172217 -0.1881989 -0.34755543 0.16016346 0.033718567 -0.110135585 0.17747457
0.0918508 -0.21216412 -0.18269774 0.25769693 -0.3233746 -0.4466736 -0.21028171 -0.34531802
-0.23179047 0.17800505 -0.17210065 0.062254164 0.13698582 0.023308676 -0.24045907 -0.030351833
-0.32742867 -0.07235212 -0.11809389 -0.20829603 -0.29028934 -0.22578824 0.15228379 -0.50139177
0.26494768 -0.033051375 0.3566201 -0.009456492 0.20254768 0.06475028 -0.043011576 0.24822918
0.13823505 0.24149367 0.10663914 -0.002949358 -0.0018588863 0.10481996 -0.011142533 0.04705521
0.086554565 0.011205033 0.10625704 0.03578156 0.28172153 -0.19362472 -0.19125105 0.06286282
0.10292333 0.24834578 0.1931434 0.06889485 -0.1373218 0.3814975 -0.027594086 0.18782885
0.16658527 0.101276755 0.02716102 -0.00081387674 -0.29189953 0.020266626 0.10781856 -0.014258238
0.12720846 0.4713415 0.02679078 0.20257135 0.15803875 0.1091331 -0.16784568 0.077668615
0.38013914 0.1744565 0.021885462 -0.03489591 -0.04667819 -0.23463556 0.21533567 0.015930086
0.16612495 0.21067126 0.24319467 0.1560192 -0.039792575 0.027433429 -0.0041654385 0.005790241

fc2.bias f4 [32]
00000000: b9d2 183d 814d 8fbc 1ad2 3b3e 046c 643c
00000010: cb8a f83c dccf d2bc e78b 8b3d b936 d03d
00000020: f8f5 603d b497 8a3c 7637 e73d 1108 1a3e
00000030: bffc febc 10c4 ed3c a41e bb3d 39be 313d
00000040: be60 c4bc b7d0 563d 6d5d c33c 7a8c 88bd
00000050: 2bf5 54bd 0765 19bc 7087 273d 202c c43d
00000060: e8da 473e 94e8 cabd 14e2 3d3e 3854 2d3e
00000070: de54 1e3c 24b7 d83d 0705 9f3b 153a 323d
0.037310336 -0.017493011 0.18341866 0.013941769 0.03033962 -0.02573388 0.06813794 0.101666875
0.054922074 0.01691804 0.11289875 0.1504214 -0.031126378 0.029024154 0.091367036 0.0433943
-0.023971912 0.05244514 0.02384826 -0.06667419 -0.051991623 -0.009362466 0.040900648 0.09578729
0.195171 -0.09907642 0.18543273 0.16926658 0.009663789 0.10581806 0.004852894 0.043512423

fc3.weight f4 [16, 32]
00000000: 28bb a13e 708a c43d be4f 98be c287 2e3e
00000010: 7311 75be faad af3d 035f 7c3e 3c70 4e3e
00000020: 4ad9 9c3e 9efe 5a3e a8a2 7cbd 2aa5 7bbe
00000030: ca0b b5bd d384 bf3e 2931 8bbe 7ce3 153e
00000040: 6754 563d 7604 073e 13c0 743e 2a6f 4c3e
00000050: 8e49 8a3e 29c5 503e 8f95 babe 545f 633d
00000060: 4107 c5be 88c3 063d 182a aabe 28e8 1dbe
00000070: 1223 4a3e 294b 333e 3dee 553d f56d 303e
00000080: 35fc 863e ba69 d23d 50ea 90be 8cdc 3f3e
00000090: 9dfc 58be 82f8 fd3d 1cd0 713e 9567 cf3b
000000a0: fb58 343e ca4a 8c3e 9894 243e 34f7 9fbe
000000b0: 60bb 9abd 23e8 bd3d e3c5 54be 120b ec3d
000000c0: d0c4 583e ad11 9d3d 7704 423e 6e01 cb3c
000000d0: 9740 ad3e 5d54 933e 8886 c6be 2022 293e
000000e0: 3fcc 48be 1618 ca3b f068 95be eeea 03be
000000f0: 38c6 913e 5be5 fa3d 7732 e6bc b828 903e
00000100: 7633 b9bd b160 56bd 14e1 dd3e e866 2fbc
00000110: cb08 d53e 89fb 52be 7c5d 453d 4f51 38bd
00000120: dac3 47be d91e 0abe 3ca1 fa3d 64d3 813e
00000130: e070 95bd e01f 9c3d 02bf 583e 70d8 0ebe
00000140: 6e27 12bd 8eaf c4bd 21b2 123d 6533 0a3c
00000150: 8cc0 1e3c c6f7 27be 0418 bb3e 4981 80bb
00000160: 6198 b93e a1c0 4c3c bbbe 103f fc1b ff3e
00000170: 9f0a 2bbe e66a e93c cd53 80be 60de 21be
00000180: 0a1e 9dbd 2fec 8a3d 3f26 293f ae8b cabd
00000190: ada6 cb3e 5a08 30be db8d 0cbe befe 85bd
000001a0: 725b 4bbe 65df 6abd 81d5 a93d c246 c23e
000001b0: a484 4dbd a68a b13d 9754 f33e 938d 92bd
000001c0: e57f f83d a152 363d 2c39 183d 2ed6 06be
000001d0: 047b 3bbe aec9 c4bd e42b 223e 3b26 14be
000001e0: 3def d13e 6cdb f6bb e6b9 e33e d88f f43e
000001f0: d6b0 4bbe ac51 68bc becf abbd fb5f 94bd
00000200: 726f ee3d 9bc4 a83e 0628 d0be 1e30 993e
00000210: ad6a 8fbe ddc5 773e 0aa8 8a3e a388 cc3d
00000220: a144 a83e 41c0 983e 2dd6 c23d 5913 84be
00000230: 0d9d 84bd d8c1 433e 20cb 65be 23a6 5e3e
00000240: aac0 863d f500 b53d d8be 763e 59ec b43d
00000250: da97 923e d35c 803e 2537 49be 5e5f 703e
00000260: 8148 acbe 0900 813e d5bf 4dbe 0e9c 97bd
00000270: 36d4 563e 4f2b bf3d d4e8 b9bd 2731 8d3e
00000280: f703 d23d 3547 333e ec9b 8fbe ff89 b63d
00000290: 978b a0be 8b22 49bc 2b39 e63d 2b99 b33d
000002a0: 3c40 55bd 2f1a 963e a90b 7d3e d8f0 b4be
000002b0: 6da0 9f3d 6284 443d ae24 c0bd fe4a 1e3e
000002c0: e3ed 643e 27d8 6d3e cc5f df3d 1cbf 64bd
000002d0: 67bc b83c a886 4f3e 4a3e 97be 19a7 0abd
000002e0: 7cba 94be 7d78 173e 2d41 b2be ad68 8dbe
000002f0: 8caf d33c d1fe 8d3e 2466 5d3e 0cd5 b83d
00000300: 5be1 c03a c552 383b 9d98 fe3e c73b 00be
00000310: a542 d93e 2bf8 dcbd 8954 e9bc 4bea 393e
00000320: 84de eebd eb3d ddbd eaf7 ac3c 1ec3 b63e
00000330: e11b e8bd bdde 8a3d a00d cb3e f33d 97ba
00000340: e42e 313d d6ee 623c 2471 b8bd 7cfc d7bd
00000350: 2414 90bd b75f cebd e4c9 c43e c394 08be
00000360: 4526 bd3e bae3 09bd c1bb 173f 0a8a aa3e
00000370: 0235 99be aa6f 98bd beb4 a9be 1ffb efbd
00000380: 9312 f13d 0418 873e b96f 86be 7e7a 933e
00000390: 3c5b 7bbe 6813 ff3d 7cc1 843d f5ef 3e3e
000003a0: e1cb 863d eafa 463e 0399 073e cbf3 6dbe
000003b0: c63a 233e bdc3 233e bdaa 5dbe 18db c03e
000003c0: 610d 803e 2cc3 a93e fb92 823e 1510 6a3e
000003d0: 6102 663e ab0a 1f3e 6937 c6be 4481 253e
000003e0: 301a cbbe dff3 653e 243c 6cbe 9947 aebc
000003f0: 7e38 333d 695f 153e 4ee5 38bc d9ce 183e
0.315881 0.09596717 -0.29748338 0.17043975 -0.23932438 0.08578105 0.24645619 0.20160002
0.30634528 0.21386191 -0.06167856 -0.24574724 -0.08840139 0.37406024 -0.27185944 0.1463756
0.052326586 0.13185295 0.23901395 0.1996428 0.27009243 0.2038771 -0.3644223 0.055510834
-0.38482097 0.032901317 -0.3323524 -0.15420592 0.19739941 0.1750914 0.052229155 0.17229445
0.26364294 0.10274072 -0.28303766 0.18736476 -0.21190114 0.12400915 0.23614544 0.0063294866
0.17612068 0.2740081 0.16072309 -0.3124329 -0.0755527 0.09272792 -0.20778613 0.11525549
0.21168828 0.07669387 0.18947016 0.024780955 0.3383834 0.28775302 -0.38774514 0.16516924
-0.19609164 0.006167422 -0.29181623 -0.12882587 0.2847154 0.12250777 -0.028100235 0.28156066
-0.090430185 -0.052338306 0.43335783 -0.010705687 0.4160827 -0.20603766 0.048184857 -0.044999417
-0.19508305 -0.1348833 0.12237784 0.2535659 -0.0729692 0.07623267 0.21166614 -0.13949752
-0.035682134 -0.09603797 0.03581441 0.008435105 0.009689461 -0.16403112 0.3654176 -0.003921662
0.36249068 0.012497098 0.5654103 0.49826038 -0.1670327 0.028493356 -0.25063935 -0.15807486
-0.07671745 0.0678333 0.66073984 -0.09889923 0.397756 -0.17190686 -0.13725989 -0.06542729
-0.19859102 -0.057341952 0.08292676 0.3794461 -0.050175324 0.08669023 0.47525474 -0.071559094
0.12133769 0.044512395 0.0371639 -0.1316764 -0.18308645 -0.0960878 0.15837055 -0.14467709
0.41002837 -0.0075334813 0.44477767 0.47765994 -0.19891676 -0.014179628 -0.08389233 -0.07244869
0.1164235 0.32962498 -0.40655535 0.29919523 -0.28011075 0.24196573 0.2708133 0.09986999
0.3286486 0.29834178 0.09513507 -0.2579601 -0.064752676 0.19116914 -0.22440767 0.21743064
0.065797165 0.08838073 0.24096239 0.08834142 0.2863148 0.2507082 -0.19649942 0.2347388
-0.33649066 0.2519534 -0.2009271 -0.07402812 0.2097939 0.09334432 -0.090776116 0.27576563
0.102546625 0.17507632 -0.28048646 0.089130394 -0.313565 -0.012276302 0.11241373 0.08769449
-0.05206321 0.29316851 0.24711479 -0.3534 0.07794271 0.047977813 -0.09381996 0.15458295
0.22356372 0.23226987 0.10906944 -0.05584632 0.022550775 0.20266211 -0.2953971 -0.033850763
-0.29048526 0.14792056 -0.3481535 -0.27618924 0.025840543 0.27733472 0.21620995 0.090250105
0.0014715599 0.0028125506 0.4972581 -0.12522803 0.42433658 -0.10789522 -0.028482692 0.18155782
-0.11663535 -0.108028255 0.021114308 0.35695738 -0.113334425 0.06780765 0.39658833 -0.0011538848
0.04325761 0.013850888 -0.09005955 -0.105462044 -0.070350915 -0.1007685 0.3843528 -0.13337998
0.3694326 -0.033664443 0.59270865 0.3330844 -0.29923254 -0.07443173 -0.33145708 -0.117178194
0.11771121 0.2638551 -0.26257113 0.28804392 -0.24546522 0.12454873 0.06482217 0.18646224
0.065818556 0.19431654 0.13241963 -0.23237531 0.15940389 0.15992637 -0.21647163 0.37667155
0.25010207 0.33156717 0.25502762 0.22857697 0.22461845 0.15531413 -0.3871415 0.16162592
-0.39668417 0.2245631 -0.23069817 -0.021274375 0.043755047 0.14587177 -0.011285139 0.14922656

fc3.bias f4 [16]
00000000: 71f1 103e 3d40 3c3d 4373 813e 2105 6a3e
00000010: 1882 f53d b120 133e 158e 893e e47e 5cbc
00000020: 59e7 e33d bfa9 f1bc 853a 863e d3fe c8bd
00000030: edff 10bd 3541 57bd 875f a8bd 1d1d d9bc
0.14154603 0.0459597 0.2528325 0.22853519 0.11987704 0.1436794 0.26866212 -0.013457987
0.111281104 -0.029499887 0.26216522 -0.09814229 -0.03540032 -0.05255242 -0.082213454 -0.02650314

fc4.weight f4 [1, 16]
00000000: cfe9 a5be 76f8 92be 42a9 3f3f f4ff 263f
00000010: b3c2 80be 1998 babe 87f7 4c3f cab6 a7be
00000020: b80c 80be 90e9 7bbe 1097 3a3f aa60 87be
00000030: e5af ccbe 9a6d 83be e65b 83be 930b c2be
-0.32404944 -0.28705186 0.7486764 0.65234303 -0.25148544 -0.36444166 0.80065197 -0.32756644
-0.25009704 -0.24600816 0.72886753 -0.26440936 -0.39977947 -0.25669557 -0.2565605 -0.37899455
